…
ability of GPU\n","device = torch.device(\"cuda\" if torch.cuda.is_available() else \"cpu\")\n","model.to(device)"],"metadata":{"id":"qIq-B0f4yJ5b","colab":{"base_uri":"https://localhost:8080/"},"executionInfo":{"status":"ok","timestamp":1715517678370,"user_tz":-120,"elapsed":644,"user":{"displayName":"潘家碩","userId":"10928821688558552267"}},"outputId":"c139c1c2-f685-445e-fb41-e11bc7d150c6"},"execution_count":7,"outputs":[{"output_type":"execute_result","data":{"text/plain":["BertForSequenceClassification(\n","  (bert): BertModel(\n","    (embeddings): BertEmbeddings(\n","      (word_embeddings): Embedding(21128, 768, padding_idx=0)\n","      (position_embeddings): Embedding(512, 768)\n","      (token_type_embeddings): Embedding(2, 768)\n","      (LayerNorm): LayerNorm((768,), eps=1e-12, elementwise_affine=True)\n","      (dropout): Dropout(p=0.3, inplace=False)\n","    )\n","    (encoder): BertEncoder(\n","      (layer): ModuleList(\n","        (0-11): 12 x BertLayer(\n","          (attention): BertAttention(\n","            (self): BertSelfAttention(\n","              (query): Linear(in_features=768, out_features=768, bias=True)\n","              (key): Linear(in_features=768, out_features=768, bias=True)\n","              (value): Linear(in_features=768, out_features=768, bias=True)\n","              (dropout): Dropout(p=0.1, inplace=False)\n","            )\n","            (output): BertSelfOutput(\n","              (dense): Linear(in_features=768, out_features=768, bias=True)\n","              (LayerNorm): LayerNorm((768,), eps=1e-12, elementwise_affine=True)\n","              (dropout): Dropout(p=0.1, inplace=False)\n","            )\n","          )\n","          (intermediate): BertIntermediate(\n","            (dense): Linear(in_features=768, out_features=3072, bias=True)\n","            (intermediate_act_fn): GELUActivation()\n","          )\n","          (output): BertOutput(\n","            (dense): Linear(in_features=3072, out_features=768, bias=True)\n","            (LayerNorm): LayerNorm((768,), eps=1e-12, elementwise_affine=True)\n","            (dropout): Dropout(p=0.1, inplace=False)\n","          )\n","        )\n","      )\n","    )\n","    (pooler): BertPooler(\n","      (dense): Linear(in_features=768, out_features=768, bias=True)\n","      (activation): Tanh()\n","    )\n","  )\n","  (dropout): Dropout(p=0.3, inplace=False)\n","  (classifier): Linear(in_features=768, out_features=7, bias=True)\n",")"]},"metadata":{},"execution_count":7}]},{"cell_type":"code","source":["# Prepare datasets\n","train, temp = train_test_split(df, test_size=0.3, random_state=42)\n","val, test = train_test_split(temp, test_size=0.5, random_state=42)\n","\n","train_dataset = LyricsDataset(train['Input'].tolist(), train['labels'].tolist(), tokenizer)\n","val_dataset =
…
ain Loss: 0.5801811941306699, Train Accuracy: 0.8174037089871612, Val Loss: 1.4299872941092442, Val Accuracy: 0.5333333333333333\n","Epoch 7, Train Loss: 0.37742622586136515, Train Accuracy: 0.9172610556348074, Val Loss: 1.2230743985427053, Val Accuracy: 0.58\n","Epoch 8, Train Loss: 0.2427624353122982, Train Accuracy: 0.9429386590584878, Val Loss: 1.2873814592235966, Val Accuracy: 0.58\n","Early stopping triggered!\n"]},{"output_type":"execute_result","data":{"text/plain":["BertForSequenceClassification(\n","  (bert): BertModel(\n","    (embeddings): BertEmbeddings(\n","      (word_embeddings): Embedding(21128, 768, padding_idx=0)\n","      (position_embeddings): Embedding(512, 768)\n","      (token_type_embeddings): Embedding(2, 768)\n","      (LayerNorm): LayerNorm((768,), eps=1e-12, elementwise_affine=True)\n","      (dropout): Dropout(p=0.3, inplace=False)\n","    )\n","    (encoder): BertEncoder(\n","      (layer): ModuleList(\n","        (0-11): 12 x BertLayer(\n","          (attention): BertAttention(\n","            (self): BertSelfAttention(\n","              (query): Linear(in_features=768, out_features=768, bias=True)\n","              (key): Linear(in_features=768, out_features=768, bias=True)\n","              (value): Linear(in_features=768, out_features=768, bias=True)\n","              (dropout): Dropout(p=0.1, inplace=False)\n","            )\n","            (output): BertSelfOutput(\n","              (dense): Linear(in_features=768, out_features=768, bias=True)\n","              (LayerNorm): LayerNorm((768,), eps=1e-12, elementwise_affine=True)\n","              (dropout): Dropout(p=0.1, inplace=False)\n","            )\n","          )\n","          (intermediate): BertIntermediate(\n","            (dense): Linear(in_features=768, out_features=3072, bias=True)\n","            (intermediate_act_fn): GELUActivation()\n","          )\n","          (output): BertOutput(\n","            (dense): Linear(in_features=3072, out_features=768, bias=True)\n","            (LayerNorm): LayerNorm((768,), eps=1e-12, elementwise_affine=True)\n","            (dropout): Dropout(p=0.1, inplace=False)\n","          )\n","        )\n","      )\n","    )\n","    (pooler): BertPooler(\n","      (dense): Linear(in_features=768, out_features=768, bias=True)\n","      (activation): Tanh()\n","    )\n","  )\n","  (dropout): Dropout(p=0.3, inplace=False)\n","  (classifier): Linear(in_features=768, out_features=7, bias=True)\n",")"]},"metadata":{},"execution_count":10}]},{"cell_type":"code","source":["# Testing\n","model.load_state_dict(torch.load(best_model_path))\n","model.to(device)\n","\n","model.eval()\n","total_test_loss = 0\n","total_test_accuracy = 0\n","all_true_labels = []\n","all_predictions = []\n","incorrect_predictions = []\n","\n","with torch.no_grad():\n","  
…
